Model/cf_model.tflite (tflite, 155812 bytes, 4 tensors)

functional_1/embedding_1_1/GatherV2/ReadVariableOp f4 [437, 50]
00000000: cb7f ad3e 7d33 a23d 891a 833e 6c41 2bbe
00000010: 3d8c 7b3e 8907 c43e f573 2a3d 5282 f4be
00000020: dc33 31be de2d 6fbe abaf b43e dbd7 9a3e
00000030: ff1b 9fbe 305b cdbe d80e fc3e 4eb8 bebd
00000040: 17c6 89be 2ad4 01bf eb8f 31bf 0123 1a3e
00000050: fe9a 5f3e c90f 5fbe f2fb e0bd 7155 a7be
00000060: d968 91be 105e 90be c878 4f3e 4bb6 dbbe
00000070: 941a 6e3d d743 ac3e 9435 a3be 871a 8ebe
00000080: 4c4e b63d f438 acbe 34ff 4c3f d478 19be
00000090: 3167 e6be 7deb 3cbe 0be6 9cbd 96e4 9e3e
000000a0: da48 6cbe 9411 8d3e 6e24 953e f529 53bc
000000b0: 1fe9 aa3e fe88 c93e 3799 b5be 548d 91be
000000c0: 598f 833e b18f 5b3e 3e03 043f bf95 683e
000000d0: 66a4 283d 9c1e aebe a07d 173e ffa0 f63e
000000e0: 938e a83e 4c67 793e c4fd 02be e4eb 71be
000000f0: 6e3e 8abd 260f b73e ce30 80be 55e3 03be
00000100: 779f 3d3f 85fe 34be 84f8 abbe 97df 723e
00000110: 38d8 86bc 6da5 573e 3abc 873e 9155 55be
00000120: 7261 6cbe 2bb4 c63e b993 f4bc 993a acbe
00000130: 1065 4abe 61d7 92be cd4d bf3e f9f8 873e
00000140: d25a 5bbe f92e f9bd 63d2 ac3e 293d acbe
00000150: 2b63 3e3d 36b4 cbbe 6579 aabe 4008 8fbe
00000160: ed32 b6bd 44c2 983e a585 83be 7b6d bd3e
00000170: 41c8 743e 6935 2bbc bacd 723e 06f4 963e
00000180: 3d56 84be 416d 45bd 668b 7a3e 505e c53d
00000190: 3e7c 293d 7341 f7bb ae9c 493e 70d3 86be
000001a0: 94bb 4c3e 9d88 313e 6c0d 373e c366 42be
000001b0: c3c2 ed3c 03e0 0abf 8b54 0f3f 7ee4 8fbc
000001c0: dc38 31bd d51a 2dbe 2926 e0be a05f 223e
000001d0: 8732 9fbe db22 10bf 739a fbbe e966 bc3d
000001e0: 1efd cb3d 25de 8dbe ca73 61be 5238 c63c
000001f0: fde8 85be e2e2 a3bc ae68 17be b8bb f93d
00000200: 2111 603e 9961 ab3d 9909 9bbe 9d9a 4b3d
00000210: c2e3 2a3e 71a6 94be 0139 133f e28d 94be
00000220: e5cf 3ebe 32f0 72be ec0b 11bd 47f7 e63d
00000230: 4035 37be e5d3 a43e 701f 4b3d 3bbc fd3e
00000240: c0ee 3b3e ab67 773e bd6f e5bd 3ccd 3abe
00000250: 682b 5b3e 81a9 033f add4 d73d 7c06 fd3d
00000260: 1eaa 433e 0634 70be 73dd 333e e8ac 3c3e
00000270: 288c bb3e 22f5 a5be 90fd eabe 87d7 1ebf
00000280: e3c1 813e 8f71 893e c7a6 51be 004b 89be
00000290: 6397 0e3f 7110 c0be 9a52 9fbe 2934 1dbe
000002a0: 3fc8 bf3d bc09 883c 1fed 603d 8dc6 17be
000002b0: f986 8abe 862e 10bf b712 60be cf38 10be
000002c0: 732f 4d3e 7e5e a7bd d8fb e8be e133 9e3e
000002d0: e209 acbe 6119 2abe e386 b93c 2229 c1be
000002e0: e7c3 053f 5221 44bd 761d f1bd 46a2 6abe
000002f0: 6f78 84bd 4c78 893e 8c7f 9fbe 8a63 323e
00000300: 4b89 2e3e 9348 ad3c 3da8 e63d 10c9 aa3d
00000310: 2dfb d03d 44c6 8cbe 8a9d 2c3d 8b75 cbbe
00000320: 68fb 563e b3f3 a13d ee64 283f c783 d9be
00000330: 3960 943b 9a12 813e 12ea b93d db18 93be
00000340: 4ae1 11be 4b8b 8bbe a0d3 ec3e f684 f03d
00000350: d9ed bebe 6cf2 b1be 0228 dd3e 267a 94be
00000360: ce39 cbbe 48e9 1ebe e8f7 313e 4777 f23e
00000370: d47d 8f3e 52f0 e8be aa1c e2bd beef 41be
00000380: c42b 75be af16 86be 0390 a7be f524 a9be
00000390: 6bd9 513e a96e af3e 70a8 b1be 20f3 d4bd
000003a0: ee02 97bd b404 8bbe 0ba4 0e3e ed03 b6be
000003b0: 9d5c 66be 2fff adbe 0d8e debd 4d10 903e
000003c0: 2aab aabe b5f0 983e 7810 09bd 3495 0a3f
000003d0: 07a8 9c3e f919 763e 1588 7a3e 6775 f9be
000003e0: 1d8b 8e3e 2743 cabe 30a0 c8bd 105a ec3e
000003f0: 23f3 3fbe febf b7be ca7d 373d 5d9b cc3e
0.3388656 0.07919977 0.25606182 -0.16724175 0.24565215 0.38287 0.04161449 -0.47755677
-0.17304939 -0.2335734 0.35290274 0.3024281 -0.31076047 -0.40108633 0.49230075 -0.09312497
-0.26908943 -0.5071436 -0.69360226 0.15052415 0.21836469 -0.21783365 -0.10985555 -0.32682374
-0.28400305 -0.28196764 0.20260918 -0.42912516 0.058130816 0.33645508 -0.31876814 -0.27754614
0.08901653 -0.33637202 0.8007691 -0.14987499 -0.45000604 -0.18449207 -0.07661065 0.31033772
-0.23074666 0.27552474 0.29129356 -0.012888421 0.33380982 0.3936233 -0.35468456 -0.28428137
0.25695303 0.21441533 0.5156745 0.22713374 0.041172408 -0.34007728 0.14794016 0.48169705
0.32921275 0.24355811 -0.12792116 -0.23625141 -0.06750189 0.35753745 -0.25037235 -0.12879689
0.7407145 -0.17675216 -0.3358804 0.23718105 -0.016460523 0.21059199 0.26510793 -0.20833422
-0.23084047 0.38809332 -0.029855596 -0.33638456 -0.19765115 -0.28679946 0.37364045 0.2655714
-0.21421364 -0.121671624 0.33754262 -0.33640411 0.046481293 -0.39785928 -0.33295742 -0.27935982
-0.08896432 0.29835713 -0.256879 0.3699759 0.23904516 -0.010449746 0.23711291 0.2948305
-0.25847045 -0.048199896 0.24467239 0.09637129 0.041378252 -0.007545644 0.19688675 -0.2633319
0.1999343 0.1733727 0.17876214 -0.18984513 0.029023534 -0.54248065 0.5598838 -0.017565008
-0.043267116 -0.16904767 -0.43779114 0.1585679 -0.31093237 -0.56303185 -0.49141273 0.09199316
0.09960388 -0.27708545 -0.22016826 0.024196777 -0.26154318 -0.020005647 -0.14786026 0.12194008
0.21881534 0.08368225 -0.3028076 0.049707998 0.16688445 -0.29033235 0.57508856 -0.29014498
-0.18633993 -0.2372444 -0.03541176 0.11277633 -0.17891407 0.32192913 0.049590528 0.4955767
0.18352795 0.2416064 -0.11202953 -0.18242353 0.21403277 0.5143052 0.105386116 0.123547524
0.19107863 -0.23457345 0.17564945 0.18425333 0.36630368 -0.32413584 -0.45896578 -0.6204762
0.25343236 0.2684445 -0.20473777 -0.26815033 0.5569975 -0.37512544 -0.31117707 -0.15351929
0.09364366 0.016606204 0.054913636 -0.14821835 -0.270561 -0.5632099 -0.21882139 -0.14084171
0.20037632 -0.0817232 -0.45504642 0.30898955 -0.3360129 -0.16611244 0.022647327 -0.37726694
0.5225205 -0.04788334 -0.11773197 -0.22913465 -0.064682834 0.26849592 -0.31151998 0.17420784
0.1704456 0.02115277 0.11262558 0.08339131 0.10204158 -0.27495015 0.04214243 -0.39738116
0.20994341 0.0790781 0.65779006 -0.4248335 0.004528072 0.25209504 0.090778485 -0.287299
-0.14246097 -0.2725471 0.46255207 0.1174411 -0.37290838 -0.34755266 0.43194586 -0.28999442
-0.3969254 -0.15518677 0.17379725 0.47356626 0.28025687 -0.4549585 -0.110406235 -0.1893911
-0.23942477 -0.2618918 -0.3272706 -0.33036008 0.20493095 0.34264114 -0.3469882 -0.10397935
-0.07373606 -0.27152026 0.13929765 -0.3554987 -0.22496267 -0.33983752 -0.10866938 0.28137437
-0.33333713 0.29871145 -0.03346297 0.54133916 0.30596945 0.24033345 0.24465974 -0.48722383
0.2784051 -0.39504358 -0.09796178 0.46162462 -0.18745093 -0.35888666 0.044797696 0.39962283

functional_1/embedding_2_2/GatherV2/ReadVariableOp f4 [300, 1]
00000000: b42c 983e f356 9e3e 7f00 af3e e2fa a43e
00000010: 1f4b bb3e 3b14 843e 9dab 9d3e 6a53 993e
00000020: 84af b13e 582d 9e3e afb4 833e 77bf b33e
00000030: d601 a53e 89ce a43e fcac b83e 0c46 973e
00000040: c20a c83e a19e c53e 14b2 a23e bfdb 853e
00000050: e08f 8d3e c41f 803e 201d ac3e f6bb a43e
00000060: 3bd4 c53e e230 b63e 56e7 bc3e c874 c63e
00000070: cef8 9f3e 212d ac3e 5ffc bf3e 5dce 8d3e
00000080: ca47 8b3e 0045 9d3e 9df3 b13e 3980 8d3e
00000090: d091 973e bde9 a03e f60c ac3e 5d6c b73e
000000a0: 4ab7 9f3e f4b8 af3e aa9b a23e a47b b83e
000000b0: f7d8 9c3e 0550 8b3e 52c1 2f3e e53a 843e
000000c0: 5276 873e 341d 703e 883b 893e c886 8f3e
000000d0: e0f4 823e 1279 753e fc13 9e3e 080c 853e
000000e0: 6c66 853e e135 883e 76ab a13e b172 8f3e
000000f0: 97c7 9a3e 7d30 af3e 0a50 773e e94f 9c3e
00000100: 15a0 5c3e 515d 753e 6ce1 8e3e a419 8e3e
00000110: 7aae 873e 2968 933e 1eb4 853e 8a5b 7f3e
00000120: 815a 963e 608e 883e 606e 8a3e 8b2d 903e
00000130: bb55 883e cbfe 9b3e 2c06 7a3e 4195 6f3e
00000140: 15b3 893e 3293 803e d185 953e 77bb 873e
00000150: 2279 893e a86f a13e 7f5c 323e 764e 903e
00000160: 3ad9 413e 3a44 973e 4535 a43e 60b8 8c3e
00000170: 17e7 963e 7e92 923e 804f 9c3e 952e 563e
00000180: 3018 863e 016c 9e3e 4e36 8d3e 05a3 8c3e
00000190: ca0d 7d3e 9e05 603e 6308 813e 45ee 7b3e
000001a0: 913f ad3e 1c32 6d3e 700f 9e3e b360 813e
000001b0: 2ef9 823e f6c6 6f3e bc06 8e3e 32a8 993e
000001c0: 19ca 723e c9ff 8c3e 5cb5 963e d801 9b3e
000001d0: 71a6 873e 32ea 973e e5e9 603e 6935 783e
000001e0: ee08 8c3e 30db 913e f616 6c3e a516 ad3e
000001f0: 02cd 6b3e 6dc6 8e3e 20ae b33e 0cb3 4b3e
00000200: 1397 8e3e 918d 993e ebfb 7e3e 074e 6d3e
00000210: 2f1d 973e 84a4 9e3e 9ebc 873e 9933 813e
00000220: 3a7e 7c3e 628f 903e 4e66 823e ba40 9e3e
00000230: 3a51 983e 8772 953e ba99 aa3e f627 853e
00000240: 4328 a03e 9930 833e b648 9e3e 2a5f 943e
00000250: 298e 873e 2f77 a03e 85b5 7f3e 62c7 9b3e
00000260: fa76 413e da64 883e b5cb 823e 9d5a 963e
00000270: a3a2 a33e 6b8c 903e 505d 933e 78f0 933e
00000280: 581e 8e3e 9980 913e 61fd 933e e405 7f3e
00000290: 8583 993e d1e7 853e a9cf 803e cefd 8e3e
000002a0: 61f7 903e f73a 853e 9bad 783e 1956 953e
000002b0: 5c73 813e cbbd a03e 023f 883e e316 7d3e
000002c0: b4ea 883e f10e a53e 4284 8e3e 2cc1 303e
000002d0: fa09 a93e ce99 8f3e cb2b 833e 8285 883e
000002e0: fe14 8a3e 2172 9e3e c506 8c3e 49d9 7a3e
000002f0: ec47 a33e cc51 9f3e cf07 7a3e b18f 943e
00000300: 5719 a23e 6317 7e3e 7d2d 753e 271e 8f3e
00000310: ded4 a63e 3597 923e f6e3 8e3e 33bb 973e
00000320: 9e3a 913e 548d b43e cba6 9c3e 2c91 873e
00000330: 4e18 803e 4cb3 943e 3a1e a03e eb0b a73e
00000340: c3cc 383e 7c87 7f3e 32e5 973e a1b3 923e
00000350: 53db 7d3e 34a2 a43e 8c3e 933e 2c4b 963e
00000360: 1710 603e d459 533e e738 8e3e fdea 923e
00000370: 1dca 8c3e e837 a03e f421 a43e 2203 9e3e
00000380: 3ed7 873e 213f 8a3e 3873 9f3e 2f10 ab3e
00000390: c951 813e b721 5a3e 63ef 673e 8b99 6d3e
000003a0: 845f 463e c94d 5f3e 83da 833e 4014 753e
000003b0: c8ec 4b3e 7d39 913e 22a6 9e3e 17bc 803e
000003c0: 6416 563e b5dd a73e 2a0f 4e3e e96c 943e
000003d0: 3a55 633e 08d9 593e 6076 b03e ad2c a33e
000003e0: 308c 4d3e 3e87 973e 15d5 5c3e 0ef9 8a3e
000003f0: 92ae 8b3e b20d 9e3e 0c64 9b3e 50d7 953e
0.29721606 0.30925712 0.34180066 0.32222658 0.3658075 0.25796685 0.30794993 0.29946452
0.3470422 0.3089397 0.25723788 0.35107014 0.32227963 0.32188824 0.36069477 0.2954563
0.39070708 0.38597587 0.31776488 0.26144215 0.2764883 0.25024235 0.3361597 0.32174653
0.38638481 0.3558417 0.36895245 0.38760972 0.3124451 0.3362818 0.3749723 0.27696505
0.27203208 0.30716705 0.34756175 0.2763689 0.29603434 0.31428328 0.33603638 0.35824862
0.31194526 0.34320796 0.31759387 0.3603183 0.3063428 0.27209488 0.1716359 0.25826183
0.2645746 0.2344864 0.2680323 0.28032517 0.2557745 0.23971966 0.30874622 0.25985742
0.26054704 0.26603606 0.31576127 0.2801719 0.302304 0.3421668 0.24151626 0.30529717
0.21545441 0.23961379 0.27906358 0.27753937 0.26500303 0.28790405 0.2611398 0.24937263
0.29365924 0.26671124 0.27037334 0.28159747 0.26627907 0.3046783 0.24416417 0.2339678
0.2689444 0.251123 0.29203656 0.26510212 0.2685023 0.315305 0.17418097 0.2818486
0.18930522 0.2954424 0.3207189 0.27484417 0.29473183 0.2862739 0.30529404 0.20916207
0.2619033 0.30941775 0.27580494 0.27468124 0.24712291 0.21877143 0.2520171 0.24602611
0.3383756 0.23163646 0.30871153 0.25269088 0.25580734 0.23415741 0.27739513 0.30011135
0.23709907 0.275389 0.2943524 0.30274844 0.26494172 0.29670864 0.21964224 0.24239124
0.27350563 0.2848754 0.23055634 0.3380634 0.23027423 0.27885762 0.35093784 0.1989252
0.27849635 0.2999082 0.24900787 0.23174296 0.29514453 0.3098489 0.2651109 0.25234678
0.24657527 0.28234392 0.25468677 0.30908757 0.2974947 0.2918894 0.3332041 0.2600705
0.31280717 0.25623015 0.3091485 0.28978854 0.26475647 0.3134093 0.24971588 0.30425555
0.18893042 0.26639444 0.2554604 0.29366007 0.3196002 0.2823213 0.2878213 0.288944
0.27757525 0.28418425 0.2890425 0.24904591 0.29983154 0.26153424 0.25158432 0.27928013
0.28313735 0.2602155 0.24284975 0.2916725 0.25283325 0.313948 0.2661057 0.24715762
0.26741564 0.32237962 0.2783528 0.17261189 0.33015424 0.2804703 0.2561935 0.26664358
0.2696914 0.30946448 0.27348915 0.2449695 0.3189081 0.31117094 0.24417041 0.29015878
0.31659958 0.24813609 0.23943134 0.27952692 0.3258428 0.28630987 0.27908295 0.2963501
0.28365034 0.35264075 0.30596003 0.26477945 0.25018543 0.29043043 0.3127306 0.3262628
0.1804686 0.24954027 0.2966705 0.2865267 0.24790697 0.32155 0.28758657 0.29354227
0.21881138 0.20639735 0.27777788 0.28694907 0.2749795 0.31292653 0.32057154 0.30861765
0.26531404 0.2700129 0.31142592 0.33410785 0.2525771 0.21301924 0.22649913 0.23203103
0.19372374 0.21807016 0.2575265 0.23933506 0.19914544 0.28364173 0.30986124 0.251435
0.20906979 0.32786337 0.20122972 0.28989342 0.2220048 0.21274197 0.34465313 0.31870022
0.20073009 0.2959537 0.2156566 0.2714314 0.27281624 0.30869824 0.30349767 0.29265833

functional_1/embedding_2/GatherV2/ReadVariableOp f4 [300, 50]
00000000: 0b55 b33e f0be c23e 2f47 b33e 7b95 94be
00000010: eb6b dd3d c87b 283f 296d 883e 6026 7bbe
00000020: ec94 93be a226 25be af37 f93e 378a 933e
00000030: d1c9 fbbe 561f a8be c283 003f 6eed d6be
00000040: 5570 c8be d7fa a73e 7440 ab3e c168 a43e
00000050: 4d37 c43e a6a1 d6bd eae6 72be eeaf 8ebe
00000060: 0c52 df3e 526c b5be f5e8 50bf 3d86 b3be
00000070: fa33 3e3d 5f31 d53e 2fb9 37be a24d 97be
00000080: 7e5b ba3e 40d1 82be 8607 5e3e f9c7 04bf
00000090: 46a7 3abe cf54 a2be 327c 573e 4cd5 dd3e
000000a0: d0a6 bebe 68fc b03e 0394 5b3e be66 a03e
000000b0: 5fdb b13e 2bdf 8b3c 4361 06be f76a 88be
000000c0: 897a b33e 30d7 1a3e 16d3 c93e e4b0 d23e
000000d0: 3b4a ce3e 2c7d 78be 4048 db3e b723 e03e
000000e0: 3aca 4d3e 3d92 88be 5047 adbe cf14 c33d
000000f0: bf04 18bf 3f72 913e 4452 b6be 4c39 8cbe
00000100: 333a 233f d988 87be 0f15 acbe 5dec 073f
00000110: 2ccf c93e 13a2 2f3e fce3 5d3e 49e8 d5be
00000120: 32ba f2bd 3628 e83c 74e7 aabc 0b8c acbe
00000130: ec07 53be 5d5a c7be 4a42 803d 6d3c d43e
00000140: 5fe1 84be db37 abbe 1dcd 033f 629d a3be
00000150: 7cb6 81be 97f4 7dbe 768f 99be 23b7 a8be
00000160: 5d46 a03e 0d46 ba3e d6ef cbbe 340c bf3e
00000170: ef68 d73e e795 0d3e 6716 be3e 4c39 193e
00000180: 445e e9be 6d58 c5bd 0b80 2b3e 199b cb3e
00000190: 1b55 823e c3b2 d53e 342b 953e a91f e7be
000001a0: 39d0 933e 8108 d23e f3ec fe3e 3191 3ebe
000001b0: c663 09bf cd40 a63d 1e84 443e 1174 993e
000001c0: f3c2 acbe b1ae 44be 2344 993d 7c49 b0be
000001d0: f15f e2be 2157 eebd 786b adbd b734 cc3e
000001e0: 5184 c23e 682c 8ebe 0079 aebe 9a4e e4bc
000001f0: 2357 00be 5272 b0be b499 f9be 0ff0 9abe
00000200: cde5 57bd d432 a63e b9c3 353c 96f6 4bbc
00000210: e9fc 913d 0153 80be 80d6 b7be f181 c5be
00000220: 5538 b9bd d7d5 d2be e43a babe ae95 a93e
00000230: 27ac 8abe 9c0b e53e fed6 983e e387 b7bc
00000240: b54e 8b3e 0c37 873e 4029 9dbe 46e4 bfbe
00000250: cdb9 bb3e 2da7 81bd bb14 de3e ed2e 833e
00000260: 804d 923e d79f 1ebf 8c56 273e cca8 10bd
00000270: 418f ae3e 3d50 01bf 89ac f8bd 5a0b 2cbe
00000280: d4c1 ae3e cb5f b63e ba92 b0be 2892 c9be
00000290: 5e17 903e 64cb 3fbe 82e1 e9be b7e9 1abf
000002a0: b0ca c4be aa1b 85bd a0d5 773e 9a1b a3be
000002b0: 9930 93be 55fa 7dbe 56b7 b23e 5989 8dbe
000002c0: 769c 60be b71c 89be f147 ba3e 82e3 8d3e
000002d0: 7a9e a6be 6d63 6cbe dcb3 233e 022a d1be
000002e0: 5759 163d 2a0f e3be 53ad b8be 0954 91be
000002f0: 1337 edbe e3b7 e43e 08dc cdbe 22e9 563e
00000300: c006 993d 8b20 fb3e 8598 c03e 09c3 ae3e
00000310: 2e44 363e de0a a1be 40da 203e 0438 c2be
00000320: 58a2 ad3e 8b65 3f3e 88b7 5f3e 8f80 c0be
00000330: 5f1d e43e a0c8 393d 2ef6 f03d 93b1 473d
00000340: bdaa c4be 99e0 2cbf bcc3 a43e b24e 7f3e
00000350: 346b 48be 5ba5 63be 1c5f febe d6ce aabe
00000360: f4a8 43be c92c a2bc af81 8d3e 889b 9b3e
00000370: 43c6 623e 3f39 55be 95bc 83be 174d febe
00000380: 2f61 70be 5a3e cbbe 78e8 0b3d ff94 73be
00000390: a904 303f 1162 903e e002 9dbe 9380 f73d
000003a0: f19a 183d 31e7 c5be aa9e 263e ea55 edbe
000003b0: 85ea adbe 9b3b c4be 59bc c2be bc64 d33e
000003c0: 02d5 ebbe c4a8 f23e b297 3a3e 11e6 c73e
000003d0: f300 843e fc92 f33b dd0b 81be eef9 23be
000003e0: 12c9 463e 2896 f0be e09f 633e ab5a 873e
000003f0: 41b1 e33e 75a3 01be 1f79 2a3e f75b bc3e
0.3502582 0.380363 0.35015246 -0.29020295 0.10811599 0.65813875 0.26645783 -0.24526358
-0.28824556 -0.16128018 0.48675296 0.28816387 -0.4917741 -0.32836407 0.50201046 -0.4197802
-0.39148203 0.32808563 0.3344761 0.3211117 0.3832344 -0.10480051 -0.23720899 -0.278686
0.43617284 -0.35434204 -0.81605464 -0.35063353 0.046436287 0.4163923 -0.17941736 -0.29551417
0.36397928 -0.2555027 0.21682557 -0.51867634 -0.18227872 -0.3170533 0.2104347 0.43326795
-0.37236643 0.3456757 0.2144318 0.31328386 0.3473768 0.017074188 -0.1312304 -0.26644108
0.35054424 0.1512115 0.39418858 0.41150582 0.40291008 -0.242665 0.4282856 0.43777248
0.20096675 -0.2667407 -0.3384347 0.09525453 -0.5938224 0.28407475 -0.3560964 -0.27387464
0.6376068 -0.26471594 -0.33609816 0.53095037 0.39415872 0.1715167 0.21669 -0.41778782
-0.1185192 0.028339487 -0.020862319 -0.33700594 -0.2060849 -0.3893613 0.06262644 0.4145235
-0.25953194 -0.33441052 0.51484853 -0.3195601 -0.25334537 -0.24800335 -0.29992265 -0.32952222
0.31303683 0.3638157 -0.39831418 0.37313998 0.42072245 0.13826714 0.37126467 0.14963263
-0.4557973 -0.096360065 0.16748063 0.39766768 0.25455555 0.41737947 0.29134524 -0.45141342
0.288698 0.41022113 0.49790153 -0.18610074 -0.5366787 0.081178285 0.19191024 0.29971364
-0.33742484 -0.19207264 0.07483699 -0.34431064 -0.44213822 -0.11637712 -0.08467764 0.39883968
0.37991574 -0.27768254 -0.3407669 -0.027869511 -0.1253324 -0.3446222 -0.4875008 -0.30261275
-0.05270939 0.32460654 0.011094027 -0.012448927 0.07128317 -0.25063327 -0.35905838 -0.385757
-0.090439476 -0.41178772 -0.36373055 0.3312201 -0.27084467 0.4473542 0.29851526 -0.022403663
0.27208486 0.26409185 -0.30695534 -0.37478846 0.36665192 -0.063307144 0.4337519 0.2562174
0.28574753 -0.61962646 0.16341609 -0.035317227 0.3409367 -0.5051306 -0.121422835 -0.16801205
0.34132254 0.3561996 -0.34486943 -0.3936932 0.28142828 -0.18729931 -0.4567986 -0.6051287
-0.38435888 -0.06499417 0.24202585 -0.31856996 -0.28748015 -0.24802525 0.349055 -0.2764385
-0.21934685 -0.2677972 0.36383012 0.27712637 -0.32542783 -0.23084803 0.1598658 -0.40852362
0.036706295 -0.44347507 -0.36069736 -0.28384426 -0.4633108 0.44671544 -0.40206933 0.2098737
0.074719906 0.49048266 0.37616363 0.34133175 0.17799446 -0.31453604 0.15708256 -0.37933362
0.3391292 0.1869108 0.21847355 -0.37598082 0.44553658 0.045357347 0.11765705 0.048753332
-0.38411513 -0.6753021 0.32180583 0.24932364 -0.19572145 -0.22231047 -0.49681938 -0.33360928
-0.19107419 -0.019796746 0.27638003 0.30392098 0.22145943 -0.20822619 -0.25729814 -0.4966819
-0.23474573 -0.39696008 0.034157246 -0.23787306 0.6875711 0.2819982 -0.30666256 0.120850705
0.03725714 -0.38652948 0.16271463 -0.4635461 -0.33967987 -0.38326725 -0.38034323 0.41287792
-0.4606095 0.47394383 0.1822193 0.39042714 0.25781974 0.0074332934 -0.25204363 -0.1601331
0.1941264 -0.4698956 0.22228956 0.26436362 0.44471171 -0.1266001 0.16647767 0.36788914

functional_1/embedding_3_1/GatherV2/ReadVariableOp f4 [437, 1]
00000000: db5d 673e 66aa 473e 9e8a 323e 1dec 393e
00000010: d07f 5d3e 8917 4d3e 0e69 533e 4426 843e
00000020: aa2c 3e3e c602 143e f9fd 3b3e 3682 873e
00000030: cb3a 743e 44e6 7a3e 37a1 1e3e d53b 483e
00000040: 4070 a33e d73c 3a3e 0832 453e d1bc 263e
00000050: b6a2 9a3e 3427 713e 7b62 283e 34e5 7d3e
00000060: 278d 443e 3316 6d3e dbc8 543e 1ba1 403e
00000070: e05c 713e 5f01 513e 7378 a23e 74ba 6f3e
00000080: c943 7e3e c30e 2a3e dc43 613e f019 6c3e
00000090: 4883 783e b48d 513e 1b66 6b3e 10e4 683e
000000a0: fa41 463e c4ad 5d3e 478f 203e deaa 8e3e
000000b0: 5fa5 a03e a3f7 4e3e 69b3 173e 8530 583e
000000c0: a1d1 823e 794a 7a3e 910b 4c3e f16c 893e
000000d0: ae94 5d3e cd3d 823e fead a23e b59c 953e
000000e0: 3926 313e c10f 8b3e a476 493e 152e 8b3e
000000f0: 63fb 813e bfd0 6e3e 522e 533e 6437 393e
00000100: 3fe5 563e 8836 863e 5625 8c3e 5b83 863e
00000110: a23b 903e b748 863e 05f3 303e 8ee9 363e
00000120: 3e0f 323e 20d3 663e 4ff4 423e f32d 713e
00000130: a46a 553e 617f 9d3e 9351 673e 5fc5 913e
00000140: 22a8 4c3e ae9a 503e ab13 583e 961e 823e
00000150: 0132 ec3d 46e3 543e 05a2 823e 1aa7 7f3e
00000160: 3bcf 693e d0af 953e 4139 883e 6d53 483e
00000170: e16b 2d3e ad24 973e f905 5f3e e558 6f3e
00000180: 2178 973e f300 963e 90cd 6d3e 8eac 793e
00000190: c753 5e3e d246 883e 7a09 573e d072 623e
000001a0: ec74 793e 5c93 603e a368 4b3e f11c 803e
000001b0: 7a36 463e 1b0f 633e f1a6 503e 2121 823e
000001c0: 4616 693e 16a7 433e c5d6 793e be1c 653e
000001d0: f391 8a3e 50d7 853e 85ab 853e 5635 623e
000001e0: b9c3 7a3e 507b ad3e 178a 403e f5fb 253e
000001f0: 1871 5f3e df38 593e 4ae7 963e a0c7 903e
00000200: e0e3 893e 522a 893e b920 553e fe7e 793e
00000210: 132a 813e 6f31 603e cb29 a53e 46b4 9c3e
00000220: d08a 703e 5dc5 a63e 66d6 523e d97f 2f3e
00000230: 86d7 723e 2cd6 733e 0a95 623e a2ef 803e
00000240: 22cc 9c3e f553 5e3e e66e 013e 4ade 903e
00000250: ad7d 3b3e 877c 853e 4c81 753e 6226 923e
00000260: d5de 693e 5293 973e c820 373e 130e 7e3e
00000270: 4bc1 8a3e 795e 583e 239c 983e a8cc 8d3e
00000280: 164d 663e 529d 733e 54f0 6e3e aaf1 8b3e
00000290: 5264 613e a3a4 653e 9708 653e 9dab 433e
000002a0: ccf7 5c3e b154 8e3e 31c2 6f3e 1901 593e
000002b0: 397d 643e ea59 383e af2e 633e af5a 903e
000002c0: 0931 5b3e d255 7e3e acb2 553e f715 8c3e
000002d0: 576b 733e a1a5 743e c33b 9c3e 1229 3c3e
000002e0: d969 713e dc16 513e 4ef1 653e 6140 733e
000002f0: 3d29 6d3e 7cde 843e 7779 443e ec7e 3d3e
00000300: 1e4a 5a3e 7ac4 963e 7a8a 563e 5e22 3b3e
00000310: 1839 923e 1ff0 3e3e 3431 493e c6da 803e
00000320: 54dc 873e 4a0a 9c3e 19d2 4d3e f0cb 783e
00000330: 4cac 333e 4ab3 483e f03c 663e 5d42 833e
00000340: 969e 2c3e ae71 953e 99c5 7b3e bd96 4e3e
00000350: 293c 913e dc68 6e3e a744 2b3e 24e7 443e
00000360: 6362 523e cc9e 633e ef19 653e f53a 7f3e
00000370: 9e97 953e 909f 313e ffb6 593e a07c 783e
00000380: 4f4e 863e 9277 993e 8ec8 8f3e 7f1e 6e3e
00000390: aa32 803e bb10 593e 0edc 6a3e e0a7 523e
000003a0: ba95 943e 39a7 273e 321d 5d3e 9769 943e
000003b0: 9162 473e f06d 873e c6cb 7b3e 4e71 573e
000003c0: 34af 5a3e 11f8 5b3e b9cf 3e3e 22ef 883e
000003d0: 7ec7 3f3e 7688 9a3e 1419 603e 3b6b 723e
000003e0: 3f13 743e 9361 543e 984b 843e 7b20 8a3e
000003f0: f7d2 8d3e 24f6 813e 47a9 8d3e 7089 693e
0.22594397 0.19498596 0.17435691 0.18156476 0.21630788 0.20028509 0.20645544 0.25810444
0.18571725 0.14454183 0.18358602 0.2646653 0.23850553 0.24501902 0.15491186 0.19554074
0.31921577 0.18187271 0.19257367 0.16282965 0.30202264 0.23550111 0.16443817 0.24794465
0.1919447 0.23153 0.20779745 0.18811457 0.23570585 0.2041068 0.3173252 0.2341097
0.24830545 0.16607194 0.21998543 0.2305677 0.2426883 0.20464212 0.22988169 0.22743249
0.19361106 0.21648318 0.15679656 0.27864736 0.31376168 0.20211653 0.14814533 0.21112259
0.2555056 0.24442472 0.19926287 0.26840928 0.21638748 0.25437775 0.3177337 0.2922112
0.17299737 0.27160457 0.19674164 0.27183595 0.25387105 0.23321818 0.20623139 0.18087536
0.20985888 0.2621348 0.27372235 0.2627209 0.28170496 0.26227352 0.17280205 0.17862532
0.17388627 0.22541475 0.19038509 0.23552684 0.20841461 0.30761245 0.22589712 0.28470895
0.19986013 0.20371506 0.21101253 0.2541396 0.11532975 0.20789823 0.25514236 0.24966088
0.22832958 0.29235697 0.2660618 0.19563074 0.16935684 0.2952017 0.21779622 0.23373754
0.2958384 0.292976 0.23222947 0.2438223 0.21711646 0.26616532 0.20999709 0.2211411
0.24361008 0.21931213 0.19864134 0.2502208 0.19356719 0.22173731 0.20376183 0.254159
0.22762403 0.19106707 0.24398334 0.22374246 0.27064475 0.26140833 0.26107422 0.22090659
0.24488725 0.33883142 0.18802677 0.16209395 0.21820486 0.21213101 0.29473335 0.28277302
0.26931667 0.267901 0.20813264 0.2436485 0.25227413 0.21893857 0.32258448 0.30606288
0.23490453 0.3257245 0.20589599 0.17138614 0.23715028 0.23812169 0.22127166 0.25182825
0.3062449 0.21711715 0.1263996 0.28294593 0.1830966 0.2607157 0.23975104 0.2854491
0.2283891 0.29604584 0.17883599 0.24810056 0.27100596 0.21129788 0.29806623 0.27695203
0.22490343 0.23790482 0.23333865 0.27332813 0.22010925 0.22426085 0.22366558 0.19108434
0.21578902 0.2779899 0.23413922 0.21191825 0.22313394 0.1800305 0.22185777 0.28194186
0.21405424 0.24837425 0.20868939 0.27360508 0.23771416 0.23891307 0.30514345 0.18375042
0.23575534 0.20418876 0.22455332 0.23755027 0.23160262 0.25950992 0.1918696 0.18505448
0.21317336 0.29446775 0.20951262 0.18274829 0.28559184 0.18646286 0.19647676 0.2516691
0.26535285 0.304766 0.20099677 0.24296546 0.17546195 0.19599643 0.22484183 0.2563657
0.1685737 0.29188293 0.24587096 0.2017469 0.2836621 0.23282188 0.16725408 0.19228798
0.20545344 0.22228545 0.22373174 0.24924834 0.29217237 0.17346025 0.21261214 0.2426629
0.2623162 0.29974037 0.280827 0.23253821 0.25038654 0.21197788 0.22935507 0.20571852
0.29020482 0.16372384 0.21593168 0.2898681 0.19471194 0.26451063 0.24589452 0.21039316
0.21355897 0.21481349 0.18633927 0.26744944 0.18728444 0.30182236 0.21884567 0.23673718
0.23835467 0.20740347 0.25838923 0.26977906 0.27700016 0.25383103 0.2766821 0.22806334
